{"format": "layers-model", "generatedBy": "keras v2.9.0", "convertedBy": "TensorFlow.js Converter v3.19.0", "modelTopology": {"keras_version": "2.9.0", "backend": "tensorflow", "model_config": {"class_name": "Functional", "config": {"name": "model_2", "layers": [{"class_name": "InputLayer", "config": {"batch_input_shape": [null, 64, 64, 3], "dtype": "float32", "sparse": false, "ragged": false, "name": "input_4"}, "name": "input_4", "inbound_nodes": []}, {"class_name": "Conv2D", "config": {"name": "conv2d_8", "trainable": true, "dtype": "float32", "filters": 64, "kernel_size": [9, 9], "strides": [1, 1], "padding": "same", "data_format": "channels_last", "dilation_rate": [1, 1], "groups": 1, "activation": "linear", "use_bias": true, "kernel_initializer": {"class_name": "GlorotUniform", "config": {"seed": null}}, "bias_initializer": {"class_name": "Zeros", "config": {}}, "kernel_regularizer": null, "bias_regularizer": null, "activity_regularizer": null, "kernel_constraint": null, "bias_constraint": null}, "name": "conv2d_8", "inbound_nodes": [[["input_4", 0, 0, {}]]]}, {"class_name": "Activation", "config": {"name": "activation", "trainable": true, "dtype": "float32", "activation": "relu"}, "name": "activation", "inbound_nodes": [[["conv2d_8", 0, 0, {}]]]}, {"class_name": "Conv2D", "config": {"name": "conv2d_9", "trainable": true, "dtype": "float32", "filters": 64, "kernel_size": [3, 3], "strides": [1, 1], "padding": "same", "data_format": "channels_last", "dilation_rate": [1, 1], "groups": 1, "activation": "linear", "use_bias": true, "kernel_initializer": {"class_name": "GlorotUniform", "config": {"seed": null}}, "bias_initializer": {"class_name": "Zeros", "config": {}}, "kernel_regularizer": null, "bias_regularizer": null, "activity_regularizer": null, "kernel_constraint": null, "bias_constraint": null}, "name": "conv2d_9", "inbound_nodes": [[["activation", 0, 0, {}]]]}, {"class_name": "Activation", "config": {"name": "activation_1", "trainable": true, "dtype": "float32", "activation": "relu"}, "name": "activation_1", "inbound_nodes": [[["conv2d_9", 0, 0, {}]]]}, {"class_name": "BatchNormalization", "config": {"name": "batch_normalization_7", "trainable": true, "dtype": "float32", "axis": [3], "momentum": 0.8, "epsilon": 0.001, "center": true, "scale": true, "beta_initializer": {"class_name": "Zeros", "config": {}}, "gamma_initializer": {"class_name": "Ones", "config": {}}, "moving_mean_initializer": {"class_name": "Zeros", "config": {}}, "moving_variance_initializer": {"class_name": "Ones", "config": {}}, "beta_regularizer": null, "gamma_regularizer": null, "beta_constraint": null, "gamma_constraint": null}, "name": "batch_normalization_7", "inbound_nodes": [[["activation_1", 0, 0, {}]]]}, {"class_name": "Conv2D", "config": {"name": "conv2d_10", "trainable": true, "dtype": "float32", "filters": 64, "kernel_size": [3, 3], "strides": [1, 1], "padding": "same", "data_format": "channels_last", "dilation_rate": [1, 1], "groups": 1, "activation": "linear", "use_bias": true, "kernel_initializer": {"class_name": "GlorotUniform", "config": {"seed": null}}, "bias_initializer": {"class_name": "Zeros", "config": {}}, "kernel_regularizer": null, "bias_regularizer": null, "activity_regularizer": null, "kernel_constraint": null, "bias_constraint": null}, "name": "conv2d_10", "inbound_nodes": [[["batch_normalization_7", 0, 0, {}]]]}, {"class_name": "BatchNormalization", "config": {"name": "batch_normalization_8", "trainable": true, "dtype": "float32", "axis": [3], "momentum": 0.8, "epsilon": 0.001, "center": true, "scale": true, "beta_initializer": {"class_name": "Zeros", "config": {}}, "gamma_initializer": {"class_name": "Ones", "config": {}}, "moving_mean_initializer": {"class_name": "Zeros", "config": {}}, "moving_variance_initializer": {"class_name": "Ones", "config": {}}, "beta_regularizer": null, "gamma_regularizer": null, "beta_constraint": null, "gamma_constraint": null}, "name": "batch_normalization_8", "inbound_nodes": [[["conv2d_10", 0, 0, {}]]]}, {"class_name": "Add", "config": {"name": "add", "trainable": true, "dtype": "float32"}, "name": "add", "inbound_nodes": [[["batch_normalization_8", 0, 0, {}], ["activation", 0, 0, {}]]]}, {"class_name": "Conv2D", "config": {"name": "conv2d_11", "trainable": true, "dtype": "float32", "filters": 64, "kernel_size": [3, 3], "strides": [1, 1], "padding": "same", "data_format": "channels_last", "dilation_rate": [1, 1], "groups": 1, "activation": "linear", "use_bias": true, "kernel_initializer": {"class_name": "GlorotUniform", "config": {"seed": null}}, "bias_initializer": {"class_name": "Zeros", "config": {}}, "kernel_regularizer": null, "bias_regularizer": null, "activity_regularizer": null, "kernel_constraint": null, "bias_constraint": null}, "name": "conv2d_11", "inbound_nodes": [[["add", 0, 0, {}]]]}, {"class_name": "Activation", "config": {"name": "activation_2", "trainable": true, "dtype": "float32", "activation": "relu"}, "name": "activation_2", "inbound_nodes": [[["conv2d_11", 0, 0, {}]]]}, {"class_name": "BatchNormalization", "config": {"name": "batch_normalization_9", "trainable": true, "dtype": "float32", "axis": [3], "momentum": 0.8, "epsilon": 0.001, "center": true, "scale": true, "beta_initializer": {"class_name": "Zeros", "config": {}}, "gamma_initializer": {"class_name": "Ones", "config": {}}, "moving_mean_initializer": {"class_name": "Zeros", "config": {}}, "moving_variance_initializer": {"class_name": "Ones", "config": {}}, "beta_regularizer": null, "gamma_regularizer": null, "beta_constraint": null, "gamma_constraint": null}, "name": "batch_normalization_9", "inbound_nodes": [[["activation_2", 0, 0, {}]]]}, {"class_name": "Conv2D", "config": {"name": "conv2d_12", "trainable": true, "dtype": "float32", "filters": 64, "kernel_size": [3, 3], "strides": [1, 1], "padding": "same", "data_format": "channels_last", "dilation_rate": [1, 1], "groups": 1, "activation": "linear", "use_bias": true, "kernel_initializer": {"class_name": "GlorotUniform", "config": {"seed": null}}, "bias_initializer": {"class_name": "Zeros", "config": {}}, "kernel_regularizer": null, "bias_regularizer": null, "activity_regularizer": null, "kernel_constraint": null, "bias_constraint": null}, "name": "conv2d_12", "inbound_nodes": [[["batch_normalization_9", 0, 0, {}]]]}, {"class_name": "BatchNormalization", "config": {"name": "batch_normalization_10", "trainable": true, "dtype": "float32", "axis": [3], "momentum": 0.8, "epsilon": 0.001, "center": true, "scale": true, "beta_initializer": {"class_name": "Zeros", "config": {}}, "gamma_initializer": {"class_name": "Ones", "config": {}}, "moving_mean_initializer": {"class_name": "Zeros", "config": {}}, "moving_variance_initializer": {"class_name": "Ones", "config": {}}, "beta_regularizer": null, "gamma_regularizer": null, "beta_constraint": null, "gamma_constraint": null}, "name": "batch_normalization_10", "inbound_nodes": [[["conv2d_12", 0, 0, {}]]]}, {"class_name": "Add", "config": {"name": "add_1", "trainable": true, "dtype": "float32"}, "name": "add_1", "inbound_nodes": [[["batch_normalization_10", 0, 0, {}], ["add", 0, 0, {}]]]}, {"class_name": "Conv2D", "config": {"name": "conv2d_13", "trainable": true, "dtype": "float32", "filters": 64, "kernel_size": [3, 3], "strides": [1, 1], "padding": "same", "data_format": "channels_last", "dilation_rate": [1, 1], "groups": 1, "activation": "linear", "use_bias": true, "kernel_initializer": {"class_name": "GlorotUniform", "config": {"seed": null}}, "bias_initializer": {"class_name": "Zeros", "config": {}}, "kernel_regularizer": null, "bias_regularizer": null, "activity_regularizer": null, "kernel_constraint": null, "bias_constraint": null}, "name": "conv2d_13", "inbound_nodes": [[["add_1", 0, 0, {}]]]}, {"class_name": "Activation", "config": {"name": "activation_3", "trainable": true, "dtype": "float32", "activation": "relu"}, "name": "activation_3", "inbound_nodes": [[["conv2d_13", 0, 0, {}]]]}, {"class_name": "BatchNormalization", "config": {"name": "batch_normalization_11", "trainable": true, "dtype": "float32", "axis": [3], "momentum": 0.8, "epsilon": 0.001, "center": true, "scale": true, "beta_initializer": {"class_name": "Zeros", "config": {}}, "gamma_initializer": {"class_name": "Ones", "config": {}}, "moving_mean_initializer": {"class_name": "Zeros", "config": {}}, "moving_variance_initializer": {"class_name": "Ones", "config": {}}, "beta_regularizer": null, "gamma_regularizer": null, "beta_constraint": null, "gamma_constraint": null}, "name": "batch_normalization_11", "inbound_nodes": [[["activation_3", 0, 0, {}]]]}, {"class_name": "Conv2D", "config": {"name": "conv2d_14", "trainable": true, "dtype": "float32", "filters": 64, "kernel_size": [3, 3], "strides": [1, 1], "padding": "same", "data_format": "channels_last", "dilation_rate": [1, 1], "groups": 1, "activation": "linear", "use_bias": true, "kernel_initializer": {"class_name": "GlorotUniform", "config": {"seed": null}}, "bias_initializer": {"class_name": "Zeros", "config": {}}, "kernel_regularizer": null, "bias_regularizer": null, "activity_regularizer": null, "kernel_constraint": null, "bias_constraint": null}, "name": "conv2d_14", "inbound_nodes": [[["batch_normalization_11", 0, 0, {}]]]}, {"class_name": "BatchNormalization", "config": {"name": "batch_normalization_12", "trainable": true, "dtype": "float32", "axis": [3], "momentum": 0.8, "epsilon": 0.001, "center": true, "scale": true, "beta_initializer": {"class_name": "Zeros", "config": {}}, "gamma_initializer": {"class_name": "Ones", "config": {}}, "moving_mean_initializer": {"class_name": "Zeros", "config": {}}, "moving_variance_initializer": {"class_name": "Ones", "config": {}}, "beta_regularizer": null, "gamma_regularizer": null, "beta_constraint": null, "gamma_constraint": null}, "name": "batch_normalization_12", "inbound_nodes": [[["conv2d_14", 0, 0, {}]]]}, {"class_name": "Add", "config": {"name": "add_2", "trainable": true, "dtype": "float32"}, "name": "add_2", "inbound_nodes": [[["batch_normalization_12", 0, 0, {}], ["add_1", 0, 0, {}]]]}, {"class_name": "Conv2D", "config": {"name": "conv2d_15", "trainable": true, "dtype": "float32", "filters": 64, "kernel_size": [3, 3], "strides": [1, 1], "padding": "same", "data_format": "channels_last", "dilation_rate": [1, 1], "groups": 1, "activation": "linear", "use_bias": true, "kernel_initializer": {"class_name": "GlorotUniform", "config": {"seed": null}}, "bias_initializer": {"class_name": "Zeros", "config": {}}, "kernel_regularizer": null, "bias_regularizer": null, "activity_regularizer": null, "kernel_constraint": null, "bias_constraint": null}, "name": "conv2d_15", "inbound_nodes": [[["add_2", 0, 0, {}]]]}, {"class_name": "Activation", "config": {"name": "activation_4", "trainable": true, "dtype": "float32", "activation": "relu"}, "name": "activation_4", "inbound_nodes": [[["conv2d_15", 0, 0, {}]]]}, {"class_name": "BatchNormalization", "config": {"name": "batch_normalization_13", "trainable": true, "dtype": "float32", "axis": [3], "momentum": 0.8, "epsilon": 0.001, "center": true, "scale": true, "beta_initializer": {"class_name": "Zeros", "config": {}}, "gamma_initializer": {"class_name": "Ones", "config": {}}, "moving_mean_initializer": {"class_name": "Zeros", "config": {}}, "moving_variance_initializer": {"class_name": "Ones", "config": {}}, "beta_regularizer": null, "gamma_regularizer": null, "beta_constraint": null, "gamma_constraint": null}, "name": "batch_normalization_13", "inbound_nodes": [[["activation_4", 0, 0, {}]]]}, {"class_name": "Conv2D", "config": {"name": "conv2d_16", "trainable": true, "dtype": "float32", "filters": 64, "kernel_size": [3, 3], "strides": [1, 1], "padding": "same", "data_format": "channels_last", "dilation_rate": [1, 1], "groups": 1, "activation": "linear", "use_bias": true, "kernel_initializer": {"class_name": "GlorotUniform", "config": {"seed": null}}, "bias_initializer": {"class_name": "Zeros", "config": {}}, "kernel_regularizer": null, "bias_regularizer": null, "activity_regularizer": null, "kernel_constraint": null, "bias_constraint": null}, "name": "conv2d_16", "inbound_nodes": [[["batch_normalization_13", 0, 0, {}]]]}, {"class_name": "BatchNormalization", "config": {"name": "batch_normalization_14", "trainable": true, "dtype": "float32", "axis": [3], "momentum": 0.8, "epsilon": 0.001, "center": true, "scale": true, "beta_initializer": {"class_name": "Zeros", "config": {}}, "gamma_initializer": {"class_name": "Ones", "config": {}}, "moving_mean_initializer": {"class_name": "Zeros", "config": {}}, "moving_variance_initializer": {"class_name": "Ones", "config": {}}, "beta_regularizer": null, "gamma_regularizer": null, "beta_constraint": null, "gamma_constraint": null}, "name": "batch_normalization_14", "inbound_nodes": [[["conv2d_16", 0, 0, {}]]]}, {"class_name": "Add", "config": {"name": "add_3", "trainable": true, "dtype": "float32"}, "name": "add_3", "inbound_nodes": [[["batch_normalization_14", 0, 0, {}], ["add_2", 0, 0, {}]]]}, {"class_name": "Conv2D", "config": {"name": "conv2d_17", "trainable": true, "dtype": "float32", "filters": 64, "kernel_size": [3, 3], "strides": [1, 1], "padding": "same", "data_format": "channels_last", "dilation_rate": [1, 1], "groups": 1, "activation": "linear", "use_bias": true, "kernel_initializer": {"class_name": "GlorotUniform", "config": {"seed": null}}, "bias_initializer": {"class_name": "Zeros", "config": {}}, "kernel_regularizer": null, "bias_regularizer": null, "activity_regularizer": null, "kernel_constraint": null, "bias_constraint": null}, "name": "conv2d_17", "inbound_nodes": [[["add_3", 0, 0, {}]]]}, {"class_name": "Activation", "config": {"name": "activation_5", "trainable": true, "dtype": "float32", "activation": "relu"}, "name": "activation_5", "inbound_nodes": [[["conv2d_17", 0, 0, {}]]]}, {"class_name": "BatchNormalization", "config": {"name": "batch_normalization_15", "trainable": true, "dtype": "float32", "axis": [3], "momentum": 0.8, "epsilon": 0.001, "center": true, "scale": true, "beta_initializer": {"class_name": "Zeros", "config": {}}, "gamma_initializer": {"class_name": "Ones", "config": {}}, "moving_mean_initializer": {"class_name": "Zeros", "config": {}}, "moving_variance_initializer": {"class_name": "Ones", "config": {}}, "beta_regularizer": null, "gamma_regularizer": null, "beta_constraint": null, "gamma_constraint": null}, "name": "batch_normalization_15", "inbound_nodes": [[["activation_5", 0, 0, {}]]]}, {"class_name": "Conv2D", "config": {"name": "conv2d_18", "trainable": true, "dtype": "float32", "filters": 64, "kernel_size": [3, 3], "strides": [1, 1], "padding": "same", "data_format": "channels_last", "dilation_rate": [1, 1], "groups": 1, "activation": "linear", "use_bias": true, "kernel_initializer": {"class_name": "GlorotUniform", "config": {"seed": null}}, "bias_initializer": {"class_name": "Zeros", "config": {}}, "kernel_regularizer": null, "bias_regularizer": null, "activity_regularizer": null, "kernel_constraint": null, "bias_constraint": null}, "name": "conv2d_18", "inbound_nodes": [[["batch_normalization_15", 0, 0, {}]]]}, {"class_name": "BatchNormalization", "config": {"name": "batch_normalization_16", "trainable": true, "dtype": "float32", "axis": [3], "momentum": 0.8, "epsilon": 0.001, "center": true, "scale": true, "beta_initializer": {"class_name": "Zeros", "config": {}}, "gamma_initializer": {"class_name": "Ones", "config": {}}, "moving_mean_initializer": {"class_name": "Zeros", "config": {}}, "moving_variance_initializer": {"class_name": "Ones", "config": {}}, "beta_regularizer": null, "gamma_regularizer": null, "beta_constraint": null, "gamma_constraint": null}, "name": "batch_normalization_16", "inbound_nodes": [[["conv2d_18", 0, 0, {}]]]}, {"class_name": "Add", "config": {"name": "add_4", "trainable": true, "dtype": "float32"}, "name": "add_4", "inbound_nodes": [[["batch_normalization_16", 0, 0, {}], ["add_3", 0, 0, {}]]]}, {"class_name": "Conv2D", "config": {"name": "conv2d_19", "trainable": true, "dtype": "float32", "filters": 64, "kernel_size": [3, 3], "strides": [1, 1], "padding": "same", "data_format": "channels_last", "dilation_rate": [1, 1], "groups": 1, "activation": "linear", "use_bias": true, "kernel_initializer": {"class_name": "GlorotUniform", "config": {"seed": null}}, "bias_initializer": {"class_name": "Zeros", "config": {}}, "kernel_regularizer": null, "bias_regularizer": null, "activity_regularizer": null, "kernel_constraint": null, "bias_constraint": null}, "name": "conv2d_19", "inbound_nodes": [[["add_4", 0, 0, {}]]]}, {"class_name": "Activation", "config": {"name": "activation_6", "trainable": true, "dtype": "float32", "activation": "relu"}, "name": "activation_6", "inbound_nodes": [[["conv2d_19", 0, 0, {}]]]}, {"class_name": "BatchNormalization", "config": {"name": "batch_normalization_17", "trainable": true, "dtype": "float32", "axis": [3], "momentum": 0.8, "epsilon": 0.001, "center": true, "scale": true, "beta_initializer": {"class_name": "Zeros", "config": {}}, "gamma_initializer": {"class_name": "Ones", "config": {}}, "moving_mean_initializer": {"class_name": "Zeros", "config": {}}, "moving_variance_initializer": {"class_name": "Ones", "config": {}}, "beta_regularizer": null, "gamma_regularizer": null, "beta_constraint": null, "gamma_constraint": null}, "name": "batch_normalization_17", "inbound_nodes": [[["activation_6", 0, 0, {}]]]}, {"class_name": "Conv2D", "config": {"name": "conv2d_20", "trainable": true, "dtype": "float32", "filters": 64, "kernel_size": [3, 3], "strides": [1, 1], "padding": "same", "data_format": "channels_last", "dilation_rate": [1, 1], "groups": 1, "activation": "linear", "use_bias": true, "kernel_initializer": {"class_name": "GlorotUniform", "config": {"seed": null}}, "bias_initializer": {"class_name": "Zeros", "config": {}}, "kernel_regularizer": null, "bias_regularizer": null, "activity_regularizer": null, "kernel_constraint": null, "bias_constraint": null}, "name": "conv2d_20", "inbound_nodes": [[["batch_normalization_17", 0, 0, {}]]]}, {"class_name": "BatchNormalization", "config": {"name": "batch_normalization_18", "trainable": true, "dtype": "float32", "axis": [3], "momentum": 0.8, "epsilon": 0.001, "center": true, "scale": true, "beta_initializer": {"class_name": "Zeros", "config": {}}, "gamma_initializer": {"class_name": "Ones", "config": {}}, "moving_mean_initializer": {"class_name": "Zeros", "config": {}}, "moving_variance_initializer": {"class_name": "Ones", "config": {}}, "beta_regularizer": null, "gamma_regularizer": null, "beta_constraint": null, "gamma_constraint": null}, "name": "batch_normalization_18", "inbound_nodes": [[["conv2d_20", 0, 0, {}]]]}, {"class_name": "Add", "config": {"name": "add_5", "trainable": true, "dtype": "float32"}, "name": "add_5", "inbound_nodes": [[["batch_normalization_18", 0, 0, {}], ["add_4", 0, 0, {}]]]}, {"class_name": "Conv2D", "config": {"name": "conv2d_21", "trainable": true, "dtype": "float32", "filters": 64, "kernel_size": [3, 3], "strides": [1, 1], "padding": "same", "data_format": "channels_last", "dilation_rate": [1, 1], "groups": 1, "activation": "linear", "use_bias": true, "kernel_initializer": {"class_name": "GlorotUniform", "config": {"seed": null}}, "bias_initializer": {"class_name": "Zeros", "config": {}}, "kernel_regularizer": null, "bias_regularizer": null, "activity_regularizer": null, "kernel_constraint": null, "bias_constraint": null}, "name": "conv2d_21", "inbound_nodes": [[["add_5", 0, 0, {}]]]}, {"class_name": "Activation", "config": {"name": "activation_7", "trainable": true, "dtype": "float32", "activation": "relu"}, "name": "activation_7", "inbound_nodes": [[["conv2d_21", 0, 0, {}]]]}, {"class_name": "BatchNormalization", "config": {"name": "batch_normalization_19", "trainable": true, "dtype": "float32", "axis": [3], "momentum": 0.8, "epsilon": 0.001, "center": true, "scale": true, "beta_initializer": {"class_name": "Zeros", "config": {}}, "gamma_initializer": {"class_name": "Ones", "config": {}}, "moving_mean_initializer": {"class_name": "Zeros", "config": {}}, "moving_variance_initializer": {"class_name": "Ones", "config": {}}, "beta_regularizer": null, "gamma_regularizer": null, "beta_constraint": null, "gamma_constraint": null}, "name": "batch_normalization_19", "inbound_nodes": [[["activation_7", 0, 0, {}]]]}, {"class_name": "Conv2D", "config": {"name": "conv2d_22", "trainable": true, "dtype": "float32", "filters": 64, "kernel_size": [3, 3], "strides": [1, 1], "padding": "same", "data_format": "channels_last", "dilation_rate": [1, 1], "groups": 1, "activation": "linear", "use_bias": true, "kernel_initializer": {"class_name": "GlorotUniform", "config": {"seed": null}}, "bias_initializer": {"class_name": "Zeros", "config": {}}, "kernel_regularizer": null, "bias_regularizer": null, "activity_regularizer": null, "kernel_constraint": null, "bias_constraint": null}, "name": "conv2d_22", "inbound_nodes": [[["batch_normalization_19", 0, 0, {}]]]}, {"class_name": "BatchNormalization", "config": {"name": "batch_normalization_20", "trainable": true, "dtype": "float32", "axis": [3], "momentum": 0.8, "epsilon": 0.001, "center": true, "scale": true, "beta_initializer": {"class_name": "Zeros", "config": {}}, "gamma_initializer": {"class_name": "Ones", "config": {}}, "moving_mean_initializer": {"class_name": "Zeros", "config": {}}, "moving_variance_initializer": {"class_name": "Ones", "config": {}}, "beta_regularizer": null, "gamma_regularizer": null, "beta_constraint": null, "gamma_constraint": null}, "name": "batch_normalization_20", "inbound_nodes": [[["conv2d_22", 0, 0, {}]]]}, {"class_name": "Add", "config": {"name": "add_6", "trainable": true, "dtype": "float32"}, "name": "add_6", "inbound_nodes": [[["batch_normalization_20", 0, 0, {}], ["add_5", 0, 0, {}]]]}, {"class_name": "Conv2D", "config": {"name": "conv2d_23", "trainable": true, "dtype": "float32", "filters": 64, "kernel_size": [3, 3], "strides": [1, 1], "padding": "same", "data_format": "channels_last", "dilation_rate": [1, 1], "groups": 1, "activation": "linear", "use_bias": true, "kernel_initializer": {"class_name": "GlorotUniform", "config": {"seed": null}}, "bias_initializer": {"class_name": "Zeros", "config": {}}, "kernel_regularizer": null, "bias_regularizer": null, "activity_regularizer": null, "kernel_constraint": null, "bias_constraint": null}, "name": "conv2d_23", "inbound_nodes": [[["add_6", 0, 0, {}]]]}, {"class_name": "Activation", "config": {"name": "activation_8", "trainable": true, "dtype": "float32", "activation": "relu"}, "name": "activation_8", "inbound_nodes": [[["conv2d_23", 0, 0, {}]]]}, {"class_name": "BatchNormalization", "config": {"name": "batch_normalization_21", "trainable": true, "dtype": "float32", "axis": [3], "momentum": 0.8, "epsilon": 0.001, "center": true, "scale": true, "beta_initializer": {"class_name": "Zeros", "config": {}}, "gamma_initializer": {"class_name": "Ones", "config": {}}, "moving_mean_initializer": {"class_name": "Zeros", "config": {}}, "moving_variance_initializer": {"class_name": "Ones", "config": {}}, "beta_regularizer": null, "gamma_regularizer": null, "beta_constraint": null, "gamma_constraint": null}, "name": "batch_normalization_21", "inbound_nodes": [[["activation_8", 0, 0, {}]]]}, {"class_name": "Conv2D", "config": {"name": "conv2d_24", "trainable": true, "dtype": "float32", "filters": 64, "kernel_size": [3, 3], "strides": [1, 1], "padding": "same", "data_format": "channels_last", "dilation_rate": [1, 1], "groups": 1, "activation": "linear", "use_bias": true, "kernel_initializer": {"class_name": "GlorotUniform", "config": {"seed": null}}, "bias_initializer": {"class_name": "Zeros", "config": {}}, "kernel_regularizer": null, "bias_regularizer": null, "activity_regularizer": null, "kernel_constraint": null, "bias_constraint": null}, "name": "conv2d_24", "inbound_nodes": [[["batch_normalization_21", 0, 0, {}]]]}, {"class_name": "BatchNormalization", "config": {"name": "batch_normalization_22", "trainable": true, "dtype": "float32", "axis": [3], "momentum": 0.8, "epsilon": 0.001, "center": true, "scale": true, "beta_initializer": {"class_name": "Zeros", "config": {}}, "gamma_initializer": {"class_name": "Ones", "config": {}}, "moving_mean_initializer": {"class_name": "Zeros", "config": {}}, "moving_variance_initializer": {"class_name": "Ones", "config": {}}, "beta_regularizer": null, "gamma_regularizer": null, "beta_constraint": null, "gamma_constraint": null}, "name": "batch_normalization_22", "inbound_nodes": [[["conv2d_24", 0, 0, {}]]]}, {"class_name": "Add", "config": {"name": "add_7", "trainable": true, "dtype": "float32"}, "name": "add_7", "inbound_nodes": [[["batch_normalization_22", 0, 0, {}], ["add_6", 0, 0, {}]]]}, {"class_name": "Conv2D", "config": {"name": "conv2d_25", "trainable": true, "dtype": "float32", "filters": 64, "kernel_size": [3, 3], "strides": [1, 1], "padding": "same", "data_format": "channels_last", "dilation_rate": [1, 1], "groups": 1, "activation": "linear", "use_bias": true, "kernel_initializer": {"class_name": "GlorotUniform", "config": {"seed": null}}, "bias_initializer": {"class_name": "Zeros", "config": {}}, "kernel_regularizer": null, "bias_regularizer": null, "activity_regularizer": null, "kernel_constraint": null, "bias_constraint": null}, "name": "conv2d_25", "inbound_nodes": [[["add_7", 0, 0, {}]]]}, {"class_name": "Activation", "config": {"name": "activation_9", "trainable": true, "dtype": "float32", "activation": "relu"}, "name": "activation_9", "inbound_nodes": [[["conv2d_25", 0, 0, {}]]]}, {"class_name": "BatchNormalization", "config": {"name": "batch_normalization_23", "trainable": true, "dtype": "float32", "axis": [3], "momentum": 0.8, "epsilon": 0.001, "center": true, "scale": true, "beta_initializer": {"class_name": "Zeros", "config": {}}, "gamma_initializer": {"class_name": "Ones", "config": {}}, "moving_mean_initializer": {"class_name": "Zeros", "config": {}}, "moving_variance_initializer": {"class_name": "Ones", "config": {}}, "beta_regularizer": null, "gamma_regularizer": null, "beta_constraint": null, "gamma_constraint": null}, "name": "batch_normalization_23", "inbound_nodes": [[["activation_9", 0, 0, {}]]]}, {"class_name": "Conv2D", "config": {"name": "conv2d_26", "trainable": true, "dtype": "float32", "filters": 64, "kernel_size": [3, 3], "strides": [1, 1], "padding": "same", "data_format": "channels_last", "dilation_rate": [1, 1], "groups": 1, "activation": "linear", "use_bias": true, "kernel_initializer": {"class_name": "GlorotUniform", "config": {"seed": null}}, "bias_initializer": {"class_name": "Zeros", "config": {}}, "kernel_regularizer": null, "bias_regularizer": null, "activity_regularizer": null, "kernel_constraint": null, "bias_constraint": null}, "name": "conv2d_26", "inbound_nodes": [[["batch_normalization_23", 0, 0, {}]]]}, {"class_name": "BatchNormalization", "config": {"name": "batch_normalization_24", "trainable": true, "dtype": "float32", "axis": [3], "momentum": 0.8, "epsilon": 0.001, "center": true, "scale": true, "beta_initializer": {"class_name": "Zeros", "config": {}}, "gamma_initializer": {"class_name": "Ones", "config": {}}, "moving_mean_initializer": {"class_name": "Zeros", "config": {}}, "moving_variance_initializer": {"class_name": "Ones", "config": {}}, "beta_regularizer": null, "gamma_regularizer": null, "beta_constraint": null, "gamma_constraint": null}, "name": "batch_normalization_24", "inbound_nodes": [[["conv2d_26", 0, 0, {}]]]}, {"class_name": "Add", "config": {"name": "add_8", "trainable": true, "dtype": "float32"}, "name": "add_8", "inbound_nodes": [[["batch_normalization_24", 0, 0, {}], ["add_7", 0, 0, {}]]]}, {"class_name": "Conv2D", "config": {"name": "conv2d_27", "trainable": true, "dtype": "float32", "filters": 64, "kernel_size": [3, 3], "strides": [1, 1], "padding": "same", "data_format": "channels_last", "dilation_rate": [1, 1], "groups": 1, "activation": "linear", "use_bias": true, "kernel_initializer": {"class_name": "GlorotUniform", "config": {"seed": null}}, "bias_initializer": {"class_name": "Zeros", "config": {}}, "kernel_regularizer": null, "bias_regularizer": null, "activity_regularizer": null, "kernel_constraint": null, "bias_constraint": null}, "name": "conv2d_27", "inbound_nodes": [[["add_8", 0, 0, {}]]]}, {"class_name": "Activation", "config": {"name": "activation_10", "trainable": true, "dtype": "float32", "activation": "relu"}, "name": "activation_10", "inbound_nodes": [[["conv2d_27", 0, 0, {}]]]}, {"class_name": "BatchNormalization", "config": {"name": "batch_normalization_25", "trainable": true, "dtype": "float32", "axis": [3], "momentum": 0.8, "epsilon": 0.001, "center": true, "scale": true, "beta_initializer": {"class_name": "Zeros", "config": {}}, "gamma_initializer": {"class_name": "Ones", "config": {}}, "moving_mean_initializer": {"class_name": "Zeros", "config": {}}, "moving_variance_initializer": {"class_name": "Ones", "config": {}}, "beta_regularizer": null, "gamma_regularizer": null, "beta_constraint": null, "gamma_constraint": null}, "name": "batch_normalization_25", "inbound_nodes": [[["activation_10", 0, 0, {}]]]}, {"class_name": "Conv2D", "config": {"name": "conv2d_28", "trainable": true, "dtype": "float32", "filters": 64, "kernel_size": [3, 3], "strides": [1, 1], "padding": "same", "data_format": "channels_last", "dilation_rate": [1, 1], "groups": 1, "activation": "linear", "use_bias": true, "kernel_initializer": {"class_name": "GlorotUniform", "config": {"seed": null}}, "bias_initializer": {"class_name": "Zeros", "config": {}}, "kernel_regularizer": null, "bias_regularizer": null, "activity_regularizer": null, "kernel_constraint": null, "bias_constraint": null}, "name": "conv2d_28", "inbound_nodes": [[["batch_normalization_25", 0, 0, {}]]]}, {"class_name": "BatchNormalization", "config": {"name": "batch_normalization_26", "trainable": true, "dtype": "float32", "axis": [3], "momentum": 0.8, "epsilon": 0.001, "center": true, "scale": true, "beta_initializer": {"class_name": "Zeros", "config": {}}, "gamma_initializer": {"class_name": "Ones", "config": {}}, "moving_mean_initializer": {"class_name": "Zeros", "config": {}}, "moving_variance_initializer": {"class_name": "Ones", "config": {}}, "beta_regularizer": null, "gamma_regularizer": null, "beta_constraint": null, "gamma_constraint": null}, "name": "batch_normalization_26", "inbound_nodes": [[["conv2d_28", 0, 0, {}]]]}, {"class_name": "Add", "config": {"name": "add_9", "trainable": true, "dtype": "float32"}, "name": "add_9", "inbound_nodes": [[["batch_normalization_26", 0, 0, {}], ["add_8", 0, 0, {}]]]}, {"class_name": "Conv2D", "config": {"name": "conv2d_29", "trainable": true, "dtype": "float32", "filters": 64, "kernel_size": [3, 3], "strides": [1, 1], "padding": "same", "data_format": "channels_last", "dilation_rate": [1, 1], "groups": 1, "activation": "linear", "use_bias": true, "kernel_initializer": {"class_name": "GlorotUniform", "config": {"seed": null}}, "bias_initializer": {"class_name": "Zeros", "config": {}}, "kernel_regularizer": null, "bias_regularizer": null, "activity_regularizer": null, "kernel_constraint": null, "bias_constraint": null}, "name": "conv2d_29", "inbound_nodes": [[["add_9", 0, 0, {}]]]}, {"class_name": "Activation", "config": {"name": "activation_11", "trainable": true, "dtype": "float32", "activation": "relu"}, "name": "activation_11", "inbound_nodes": [[["conv2d_29", 0, 0, {}]]]}, {"class_name": "BatchNormalization", "config": {"name": "batch_normalization_27", "trainable": true, "dtype": "float32", "axis": [3], "momentum": 0.8, "epsilon": 0.001, "center": true, "scale": true, "beta_initializer": {"class_name": "Zeros", "config": {}}, "gamma_initializer": {"class_name": "Ones", "config": {}}, "moving_mean_initializer": {"class_name": "Zeros", "config": {}}, "moving_variance_initializer": {"class_name": "Ones", "config": {}}, "beta_regularizer": null, "gamma_regularizer": null, "beta_constraint": null, "gamma_constraint": null}, "name": "batch_normalization_27", "inbound_nodes": [[["activation_11", 0, 0, {}]]]}, {"class_name": "Conv2D", "config": {"name": "conv2d_30", "trainable": true, "dtype": "float32", "filters": 64, "kernel_size": [3, 3], "strides": [1, 1], "padding": "same", "data_format": "channels_last", "dilation_rate": [1, 1], "groups": 1, "activation": "linear", "use_bias": true, "kernel_initializer": {"class_name": "GlorotUniform", "config": {"seed": null}}, "bias_initializer": {"class_name": "Zeros", "config": {}}, "kernel_regularizer": null, "bias_regularizer": null, "activity_regularizer": null, "kernel_constraint": null, "bias_constraint": null}, "name": "conv2d_30", "inbound_nodes": [[["batch_normalization_27", 0, 0, {}]]]}, {"class_name": "BatchNormalization", "config": {"name": "batch_normalization_28", "trainable": true, "dtype": "float32", "axis": [3], "momentum": 0.8, "epsilon": 0.001, "center": true, "scale": true, "beta_initializer": {"class_name": "Zeros", "config": {}}, "gamma_initializer": {"class_name": "Ones", "config": {}}, "moving_mean_initializer": {"class_name": "Zeros", "config": {}}, "moving_variance_initializer": {"class_name": "Ones", "config": {}}, "beta_regularizer": null, "gamma_regularizer": null, "beta_constraint": null, "gamma_constraint": null}, "name": "batch_normalization_28", "inbound_nodes": [[["conv2d_30", 0, 0, {}]]]}, {"class_name": "Add", "config": {"name": "add_10", "trainable": true, "dtype": "float32"}, "name": "add_10", "inbound_nodes": [[["batch_normalization_28", 0, 0, {}], ["add_9", 0, 0, {}]]]}, {"class_name": "Conv2D", "config": {"name": "conv2d_31", "trainable": true, "dtype": "float32", "filters": 64, "kernel_size": [3, 3], "strides": [1, 1], "padding": "same", "data_format": "channels_last", "dilation_rate": [1, 1], "groups": 1, "activation": "linear", "use_bias": true, "kernel_initializer": {"class_name": "GlorotUniform", "config": {"seed": null}}, "bias_initializer": {"class_name": "Zeros", "config": {}}, "kernel_regularizer": null, "bias_regularizer": null, "activity_regularizer": null, "kernel_constraint": null, "bias_constraint": null}, "name": "conv2d_31", "inbound_nodes": [[["add_10", 0, 0, {}]]]}, {"class_name": "Activation", "config": {"name": "activation_12", "trainable": true, "dtype": "float32", "activation": "relu"}, "name": "activation_12", "inbound_nodes": [[["conv2d_31", 0, 0, {}]]]}, {"class_name": "BatchNormalization", "config": {"name": "batch_normalization_29", "trainable": true, "dtype": "float32", "axis": [3], "momentum": 0.8, "epsilon": 0.001, "center": true, "scale": true, "beta_initializer": {"class_name": "Zeros", "config": {}}, "gamma_initializer": {"class_name": "Ones", "config": {}}, "moving_mean_initializer": {"class_name": "Zeros", "config": {}}, "moving_variance_initializer": {"class_name": "Ones", "config": {}}, "beta_regularizer": null, "gamma_regularizer": null, "beta_constraint": null, "gamma_constraint": null}, "name": "batch_normalization_29", "inbound_nodes": [[["activation_12", 0, 0, {}]]]}, {"class_name": "Conv2D", "config": {"name": "conv2d_32", "trainable": true, "dtype": "float32", "filters": 64, "kernel_size": [3, 3], "strides": [1, 1], "padding": "same", "data_format": "channels_last", "dilation_rate": [1, 1], "groups": 1, "activation": "linear", "use_bias": true, "kernel_initializer": {"class_name": "GlorotUniform", "config": {"seed": null}}, "bias_initializer": {"class_name": "Zeros", "config": {}}, "kernel_regularizer": null, "bias_regularizer": null, "activity_regularizer": null, "kernel_constraint": null, "bias_constraint": null}, "name": "conv2d_32", "inbound_nodes": [[["batch_normalization_29", 0, 0, {}]]]}, {"class_name": "BatchNormalization", "config": {"name": "batch_normalization_30", "trainable": true, "dtype": "float32", "axis": [3], "momentum": 0.8, "epsilon": 0.001, "center": true, "scale": true, "beta_initializer": {"class_name": "Zeros", "config": {}}, "gamma_initializer": {"class_name": "Ones", "config": {}}, "moving_mean_initializer": {"class_name": "Zeros", "config": {}}, "moving_variance_initializer": {"class_name": "Ones", "config": {}}, "beta_regularizer": null, "gamma_regularizer": null, "beta_constraint": null, "gamma_constraint": null}, "name": "batch_normalization_30", "inbound_nodes": [[["conv2d_32", 0, 0, {}]]]}, {"class_name": "Add", "config": {"name": "add_11", "trainable": true, "dtype": "float32"}, "name": "add_11", "inbound_nodes": [[["batch_normalization_30", 0, 0, {}], ["add_10", 0, 0, {}]]]}, {"class_name": "Conv2D", "config": {"name": "conv2d_33", "trainable": true, "dtype": "float32", "filters": 64, "kernel_size": [3, 3], "strides": [1, 1], "padding": "same", "data_format": "channels_last", "dilation_rate": [1, 1], "groups": 1, "activation": "linear", "use_bias": true, "kernel_initializer": {"class_name": "GlorotUniform", "config": {"seed": null}}, "bias_initializer": {"class_name": "Zeros", "config": {}}, "kernel_regularizer": null, "bias_regularizer": null, "activity_regularizer": null, "kernel_constraint": null, "bias_constraint": null}, "name": "conv2d_33", "inbound_nodes": [[["add_11", 0, 0, {}]]]}, {"class_name": "Activation", "config": {"name": "activation_13", "trainable": true, "dtype": "float32", "activation": "relu"}, "name": "activation_13", "inbound_nodes": [[["conv2d_33", 0, 0, {}]]]}, {"class_name": "BatchNormalization", "config": {"name": "batch_normalization_31", "trainable": true, "dtype": "float32", "axis": [3], "momentum": 0.8, "epsilon": 0.001, "center": true, "scale": true, "beta_initializer": {"class_name": "Zeros", "config": {}}, "gamma_initializer": {"class_name": "Ones", "config": {}}, "moving_mean_initializer": {"class_name": "Zeros", "config": {}}, "moving_variance_initializer": {"class_name": "Ones", "config": {}}, "beta_regularizer": null, "gamma_regularizer": null, "beta_constraint": null, "gamma_constraint": null}, "name": "batch_normalization_31", "inbound_nodes": [[["activation_13", 0, 0, {}]]]}, {"class_name": "Conv2D", "config": {"name": "conv2d_34", "trainable": true, "dtype": "float32", "filters": 64, "kernel_size": [3, 3], "strides": [1, 1], "padding": "same", "data_format": "channels_last", "dilation_rate": [1, 1], "groups": 1, "activation": "linear", "use_bias": true, "kernel_initializer": {"class_name": "GlorotUniform", "config": {"seed": null}}, "bias_initializer": {"class_name": "Zeros", "config": {}}, "kernel_regularizer": null, "bias_regularizer": null, "activity_regularizer": null, "kernel_constraint": null, "bias_constraint": null}, "name": "conv2d_34", "inbound_nodes": [[["batch_normalization_31", 0, 0, {}]]]}, {"class_name": "BatchNormalization", "config": {"name": "batch_normalization_32", "trainable": true, "dtype": "float32", "axis": [3], "momentum": 0.8, "epsilon": 0.001, "center": true, "scale": true, "beta_initializer": {"class_name": "Zeros", "config": {}}, "gamma_initializer": {"class_name": "Ones", "config": {}}, "moving_mean_initializer": {"class_name": "Zeros", "config": {}}, "moving_variance_initializer": {"class_name": "Ones", "config": {}}, "beta_regularizer": null, "gamma_regularizer": null, "beta_constraint": null, "gamma_constraint": null}, "name": "batch_normalization_32", "inbound_nodes": [[["conv2d_34", 0, 0, {}]]]}, {"class_name": "Add", "config": {"name": "add_12", "trainable": true, "dtype": "float32"}, "name": "add_12", "inbound_nodes": [[["batch_normalization_32", 0, 0, {}], ["add_11", 0, 0, {}]]]}, {"class_name": "Conv2D", "config": {"name": "conv2d_35", "trainable": true, "dtype": "float32", "filters": 64, "kernel_size": [3, 3], "strides": [1, 1], "padding": "same", "data_format": "channels_last", "dilation_rate": [1, 1], "groups": 1, "activation": "linear", "use_bias": true, "kernel_initializer": {"class_name": "GlorotUniform", "config": {"seed": null}}, "bias_initializer": {"class_name": "Zeros", "config": {}}, "kernel_regularizer": null, "bias_regularizer": null, "activity_regularizer": null, "kernel_constraint": null, "bias_constraint": null}, "name": "conv2d_35", "inbound_nodes": [[["add_12", 0, 0, {}]]]}, {"class_name": "Activation", "config": {"name": "activation_14", "trainable": true, "dtype": "float32", "activation": "relu"}, "name": "activation_14", "inbound_nodes": [[["conv2d_35", 0, 0, {}]]]}, {"class_name": "BatchNormalization", "config": {"name": "batch_normalization_33", "trainable": true, "dtype": "float32", "axis": [3], "momentum": 0.8, "epsilon": 0.001, "center": true, "scale": true, "beta_initializer": {"class_name": "Zeros", "config": {}}, "gamma_initializer": {"class_name": "Ones", "config": {}}, "moving_mean_initializer": {"class_name": "Zeros", "config": {}}, "moving_variance_initializer": {"class_name": "Ones", "config": {}}, "beta_regularizer": null, "gamma_regularizer": null, "beta_constraint": null, "gamma_constraint": null}, "name": "batch_normalization_33", "inbound_nodes": [[["activation_14", 0, 0, {}]]]}, {"class_name": "Conv2D", "config": {"name": "conv2d_36", "trainable": true, "dtype": "float32", "filters": 64, "kernel_size": [3, 3], "strides": [1, 1], "padding": "same", "data_format": "channels_last", "dilation_rate": [1, 1], "groups": 1, "activation": "linear", "use_bias": true, "kernel_initializer": {"class_name": "GlorotUniform", "config": {"seed": null}}, "bias_initializer": {"class_name": "Zeros", "config": {}}, "kernel_regularizer": null, "bias_regularizer": null, "activity_regularizer": null, "kernel_constraint": null, "bias_constraint": null}, "name": "conv2d_36", "inbound_nodes": [[["batch_normalization_33", 0, 0, {}]]]}, {"class_name": "BatchNormalization", "config": {"name": "batch_normalization_34", "trainable": true, "dtype": "float32", "axis": [3], "momentum": 0.8, "epsilon": 0.001, "center": true, "scale": true, "beta_initializer": {"class_name": "Zeros", "config": {}}, "gamma_initializer": {"class_name": "Ones", "config": {}}, "moving_mean_initializer": {"class_name": "Zeros", "config": {}}, "moving_variance_initializer": {"class_name": "Ones", "config": {}}, "beta_regularizer": null, "gamma_regularizer": null, "beta_constraint": null, "gamma_constraint": null}, "name": "batch_normalization_34", "inbound_nodes": [[["conv2d_36", 0, 0, {}]]]}, {"class_name": "Add", "config": {"name": "add_13", "trainable": true, "dtype": "float32"}, "name": "add_13", "inbound_nodes": [[["batch_normalization_34", 0, 0, {}], ["add_12", 0, 0, {}]]]}, {"class_name": "Conv2D", "config": {"name": "conv2d_37", "trainable": true, "dtype": "float32", "filters": 64, "kernel_size": [3, 3], "strides": [1, 1], "padding": "same", "data_format": "channels_last", "dilation_rate": [1, 1], "groups": 1, "activation": "linear", "use_bias": true, "kernel_initializer": {"class_name": "GlorotUniform", "config": {"seed": null}}, "bias_initializer": {"class_name": "Zeros", "config": {}}, "kernel_regularizer": null, "bias_regularizer": null, "activity_regularizer": null, "kernel_constraint": null, "bias_constraint": null}, "name": "conv2d_37", "inbound_nodes": [[["add_13", 0, 0, {}]]]}, {"class_name": "Activation", "config": {"name": "activation_15", "trainable": true, "dtype": "float32", "activation": "relu"}, "name": "activation_15", "inbound_nodes": [[["conv2d_37", 0, 0, {}]]]}, {"class_name": "BatchNormalization", "config": {"name": "batch_normalization_35", "trainable": true, "dtype": "float32", "axis": [3], "momentum": 0.8, "epsilon": 0.001, "center": true, "scale": true, "beta_initializer": {"class_name": "Zeros", "config": {}}, "gamma_initializer": {"class_name": "Ones", "config": {}}, "moving_mean_initializer": {"class_name": "Zeros", "config": {}}, "moving_variance_initializer": {"class_name": "Ones", "config": {}}, "beta_regularizer": null, "gamma_regularizer": null, "beta_constraint": null, "gamma_constraint": null}, "name": "batch_normalization_35", "inbound_nodes": [[["activation_15", 0, 0, {}]]]}, {"class_name": "Conv2D", "config": {"name": "conv2d_38", "trainable": true, "dtype": "float32", "filters": 64, "kernel_size": [3, 3], "strides": [1, 1], "padding": "same", "data_format": "channels_last", "dilation_rate": [1, 1], "groups": 1, "activation": "linear", "use_bias": true, "kernel_initializer": {"class_name": "GlorotUniform", "config": {"seed": null}}, "bias_initializer": {"class_name": "Zeros", "config": {}}, "kernel_regularizer": null, "bias_regularizer": null, "activity_regularizer": null, "kernel_constraint": null, "bias_constraint": null}, "name": "conv2d_38", "inbound_nodes": [[["batch_normalization_35", 0, 0, {}]]]}, {"class_name": "BatchNormalization", "config": {"name": "batch_normalization_36", "trainable": true, "dtype": "float32", "axis": [3], "momentum": 0.8, "epsilon": 0.001, "center": true, "scale": true, "beta_initializer": {"class_name": "Zeros", "config": {}}, "gamma_initializer": {"class_name": "Ones", "config": {}}, "moving_mean_initializer": {"class_name": "Zeros", "config": {}}, "moving_variance_initializer": {"class_name": "Ones", "config": {}}, "beta_regularizer": null, "gamma_regularizer": null, "beta_constraint": null, "gamma_constraint": null}, "name": "batch_normalization_36", "inbound_nodes": [[["conv2d_38", 0, 0, {}]]]}, {"class_name": "Add", "config": {"name": "add_14", "trainable": true, "dtype": "float32"}, "name": "add_14", "inbound_nodes": [[["batch_normalization_36", 0, 0, {}], ["add_13", 0, 0, {}]]]}, {"class_name": "Conv2D", "config": {"name": "conv2d_39", "trainable": true, "dtype": "float32", "filters": 64, "kernel_size": [3, 3], "strides": [1, 1], "padding": "same", "data_format": "channels_last", "dilation_rate": [1, 1], "groups": 1, "activation": "linear", "use_bias": true, "kernel_initializer": {"class_name": "GlorotUniform", "config": {"seed": null}}, "bias_initializer": {"class_name": "Zeros", "config": {}}, "kernel_regularizer": null, "bias_regularizer": null, "activity_regularizer": null, "kernel_constraint": null, "bias_constraint": null}, "name": "conv2d_39", "inbound_nodes": [[["add_14", 0, 0, {}]]]}, {"class_name": "Activation", "config": {"name": "activation_16", "trainable": true, "dtype": "float32", "activation": "relu"}, "name": "activation_16", "inbound_nodes": [[["conv2d_39", 0, 0, {}]]]}, {"class_name": "BatchNormalization", "config": {"name": "batch_normalization_37", "trainable": true, "dtype": "float32", "axis": [3], "momentum": 0.8, "epsilon": 0.001, "center": true, "scale": true, "beta_initializer": {"class_name": "Zeros", "config": {}}, "gamma_initializer": {"class_name": "Ones", "config": {}}, "moving_mean_initializer": {"class_name": "Zeros", "config": {}}, "moving_variance_initializer": {"class_name": "Ones", "config": {}}, "beta_regularizer": null, "gamma_regularizer": null, "beta_constraint": null, "gamma_constraint": null}, "name": "batch_normalization_37", "inbound_nodes": [[["activation_16", 0, 0, {}]]]}, {"class_name": "Conv2D", "config": {"name": "conv2d_40", "trainable": true, "dtype": "float32", "filters": 64, "kernel_size": [3, 3], "strides": [1, 1], "padding": "same", "data_format": "channels_last", "dilation_rate": [1, 1], "groups": 1, "activation": "linear", "use_bias": true, "kernel_initializer": {"class_name": "GlorotUniform", "config": {"seed": null}}, "bias_initializer": {"class_name": "Zeros", "config": {}}, "kernel_regularizer": null, "bias_regularizer": null, "activity_regularizer": null, "kernel_constraint": null, "bias_constraint": null}, "name": "conv2d_40", "inbound_nodes": [[["batch_normalization_37", 0, 0, {}]]]}, {"class_name": "BatchNormalization", "config": {"name": "batch_normalization_38", "trainable": true, "dtype": "float32", "axis": [3], "momentum": 0.8, "epsilon": 0.001, "center": true, "scale": true, "beta_initializer": {"class_name": "Zeros", "config": {}}, "gamma_initializer": {"class_name": "Ones", "config": {}}, "moving_mean_initializer": {"class_name": "Zeros", "config": {}}, "moving_variance_initializer": {"class_name": "Ones", "config": {}}, "beta_regularizer": null, "gamma_regularizer": null, "beta_constraint": null, "gamma_constraint": null}, "name": "batch_normalization_38", "inbound_nodes": [[["conv2d_40", 0, 0, {}]]]}, {"class_name": "Add", "config": {"name": "add_15", "trainable": true, "dtype": "float32"}, "name": "add_15", "inbound_nodes": [[["batch_normalization_38", 0, 0, {}], ["add_14", 0, 0, {}]]]}, {"class_name": "Conv2D", "config": {"name": "conv2d_41", "trainable": true, "dtype": "float32", "filters": 64, "kernel_size": [3, 3], "strides": [1, 1], "padding": "same", "data_format": "channels_last", "dilation_rate": [1, 1], "groups": 1, "activation": "linear", "use_bias": true, "kernel_initializer": {"class_name": "GlorotUniform", "config": {"seed": null}}, "bias_initializer": {"class_name": "Zeros", "config": {}}, "kernel_regularizer": null, "bias_regularizer": null, "activity_regularizer": null, "kernel_constraint": null, "bias_constraint": null}, "name": "conv2d_41", "inbound_nodes": [[["add_15", 0, 0, {}]]]}, {"class_name": "BatchNormalization", "config": {"name": "batch_normalization_39", "trainable": true, "dtype": "float32", "axis": [3], "momentum": 0.8, "epsilon": 0.001, "center": true, "scale": true, "beta_initializer": {"class_name": "Zeros", "config": {}}, "gamma_initializer": {"class_name": "Ones", "config": {}}, "moving_mean_initializer": {"class_name": "Zeros", "config": {}}, "moving_variance_initializer": {"class_name": "Ones", "config": {}}, "beta_regularizer": null, "gamma_regularizer": null, "beta_constraint": null, "gamma_constraint": null}, "name": "batch_normalization_39", "inbound_nodes": [[["conv2d_41", 0, 0, {}]]]}, {"class_name": "Add", "config": {"name": "add_16", "trainable": true, "dtype": "float32"}, "name": "add_16", "inbound_nodes": [[["batch_normalization_39", 0, 0, {}], ["activation", 0, 0, {}]]]}, {"class_name": "UpSampling2D", "config": {"name": "up_sampling2d", "trainable": true, "dtype": "float32", "size": [2, 2], "data_format": "channels_last", "interpolation": "nearest"}, "name": "up_sampling2d", "inbound_nodes": [[["add_16", 0, 0, {}]]]}, {"class_name": "Conv2D", "config": {"name": "conv2d_42", "trainable": true, "dtype": "float32", "filters": 256, "kernel_size": [3, 3], "strides": [1, 1], "padding": "same", "data_format": "channels_last", "dilation_rate": [1, 1], "groups": 1, "activation": "linear", "use_bias": true, "kernel_initializer": {"class_name": "GlorotUniform", "config": {"seed": null}}, "bias_initializer": {"class_name": "Zeros", "config": {}}, "kernel_regularizer": null, "bias_regularizer": null, "activity_regularizer": null, "kernel_constraint": null, "bias_constraint": null}, "name": "conv2d_42", "inbound_nodes": [[["up_sampling2d", 0, 0, {}]]]}, {"class_name": "Activation", "config": {"name": "activation_17", "trainable": true, "dtype": "float32", "activation": "relu"}, "name": "activation_17", "inbound_nodes": [[["conv2d_42", 0, 0, {}]]]}, {"class_name": "UpSampling2D", "config": {"name": "up_sampling2d_1", "trainable": true, "dtype": "float32", "size": [2, 2], "data_format": "channels_last", "interpolation": "nearest"}, "name": "up_sampling2d_1", "inbound_nodes": [[["activation_17", 0, 0, {}]]]}, {"class_name": "Conv2D", "config": {"name": "conv2d_43", "trainable": true, "dtype": "float32", "filters": 256, "kernel_size": [3, 3], "strides": [1, 1], "padding": "same", "data_format": "channels_last", "dilation_rate": [1, 1], "groups": 1, "activation": "linear", "use_bias": true, "kernel_initializer": {"class_name": "GlorotUniform", "config": {"seed": null}}, "bias_initializer": {"class_name": "Zeros", "config": {}}, "kernel_regularizer": null, "bias_regularizer": null, "activity_regularizer": null, "kernel_constraint": null, "bias_constraint": null}, "name": "conv2d_43", "inbound_nodes": [[["up_sampling2d_1", 0, 0, {}]]]}, {"class_name": "Activation", "config": {"name": "activation_18", "trainable": true, "dtype": "float32", "activation": "relu"}, "name": "activation_18", "inbound_nodes": [[["conv2d_43", 0, 0, {}]]]}, {"class_name": "Conv2D", "config": {"name": "conv2d_44", "trainable": true, "dtype": "float32", "filters": 3, "kernel_size": [9, 9], "strides": [1, 1], "padding": "same", "data_format": "channels_last", "dilation_rate": [1, 1], "groups": 1, "activation": "tanh", "use_bias": true, "kernel_initializer": {"class_name": "GlorotUniform", "config": {"seed": null}}, "bias_initializer": {"class_name": "Zeros", "config": {}}, "kernel_regularizer": null, "bias_regularizer": null, "activity_regularizer": null, "kernel_constraint": null, "bias_constraint": null}, "name": "conv2d_44", "inbound_nodes": [[["activation_18", 0, 0, {}]]]}], "input_layers": [["input_4", 0, 0]], "output_layers": [["conv2d_44", 0, 0]]}}}, "weightsManifest": [{"paths": ["group1-shard1of2.bin", "group1-shard2of2.bin"], "weights": [{"name": "batch_normalization_10/gamma", "shape": [64], "dtype": "float32"}, {"name": "batch_normalization_10/beta", "shape": [64], "dtype": "float32"}, {"name": "batch_normalization_10/moving_mean", "shape": [64], "dtype": "float32"}, {"name": "batch_normalization_10/moving_variance", "shape": [64], "dtype": "float32"}, {"name": "batch_normalization_11/gamma", "shape": [64], "dtype": "float32"}, {"name": "batch_normalization_11/beta", "shape": [64], "dtype": "float32"}, {"name": "batch_normalization_11/moving_mean", "shape": [64], "dtype": "float32"}, {"name": "batch_normalization_11/moving_variance", "shape": [64], "dtype": "float32"}, {"name": "batch_normalization_12/gamma", "shape": [64], "dtype": "float32"}, {"name": "batch_normalization_12/beta", "shape": [64], "dtype": "float32"}, {"name": "batch_normalization_12/moving_mean", "shape": [64], "dtype": "float32"}, {"name": "batch_normalization_12/moving_variance", "shape": [64], "dtype": "float32"}, {"name": "batch_normalization_13/gamma", "shape": [64], "dtype": "float32"}, {"name": "batch_normalization_13/beta", "shape": [64], "dtype": "float32"}, {"name": "batch_normalization_13/moving_mean", "shape": [64], "dtype": "float32"}, {"name": "batch_normalization_13/moving_variance", "shape": [64], "dtype": "float32"}, {"name": "batch_normalization_14/gamma", "shape": [64], "dtype": "float32"}, {"name": "batch_normalization_14/beta", "shape": [64], "dtype": "float32"}, {"name": "batch_normalization_14/moving_mean", "shape": [64], "dtype": "float32"}, {"name": "batch_normalization_14/moving_variance", "shape": [64], "dtype": "float32"}, {"name": "batch_normalization_15/gamma", "shape": [64], "dtype": "float32"}, {"name": "batch_normalization_15/beta", "shape": [64], "dtype": "float32"}, {"name": "batch_normalization_15/moving_mean", "shape": [64], "dtype": "float32"}, {"name": "batch_normalization_15/moving_variance", "shape": [64], "dtype": "float32"}, {"name": "batch_normalization_16/gamma", "shape": [64], "dtype": "float32"}, {"name": "batch_normalization_16/beta", "shape": [64], "dtype": "float32"}, {"name": "batch_normalization_16/moving_mean", "shape": [64], "dtype": "float32"}, {"name": "batch_normalization_16/moving_variance", "shape": [64], "dtype": "float32"}, {"name": "batch_normalization_17/gamma", "shape": [64], "dtype": "float32"}, {"name": "batch_normalization_17/beta", "shape": [64], "dtype": "float32"}, {"name": "batch_normalization_17/moving_mean", "shape": [64], "dtype": "float32"}, {"name": "batch_normalization_17/moving_variance", "shape": [64], "dtype": "float32"}, {"name": "batch_normalization_18/gamma", "shape": [64], "dtype": "float32"}, {"name": "batch_normalization_18/beta", "shape": [64], "dtype": "float32"}, {"name": "batch_normalization_18/moving_mean", "shape": [64], "dtype": "float32"}, {"name": "batch_normalization_18/moving_variance", "shape": [64], "dtype": "float32"}, {"name": "batch_normalization_19/gamma", "shape": [64], "dtype": "float32"}, {"name": "batch_normalization_19/beta", "shape": [64], "dtype": "float32"}, {"name": "batch_normalization_19/moving_mean", "shape": [64], "dtype": "float32"}, {"name": "batch_normalization_19/moving_variance", "shape": [64], "dtype": "float32"}, {"name": "batch_normalization_20/gamma", "shape": [64], "dtype": "float32"}, {"name": "batch_normalization_20/beta", "shape": [64], "dtype": "float32"}, {"name": "batch_normalization_20/moving_mean", "shape": [64], "dtype": "float32"}, {"name": "batch_normalization_20/moving_variance", "shape": [64], "dtype": "float32"}, {"name": "batch_normalization_21/gamma", "shape": [64], "dtype": "float32"}, {"name": "batch_normalization_21/beta", "shape": [64], "dtype": "float32"}, {"name": "batch_normalization_21/moving_mean", "shape": [64], "dtype": "float32"}, {"name": "batch_normalization_21/moving_variance", "shape": [64], "dtype": "float32"}, {"name": "batch_normalization_22/gamma", "shape": [64], "dtype": "float32"}, {"name": "batch_normalization_22/beta", "shape": [64], "dtype": "float32"}, {"name": "batch_normalization_22/moving_mean", "shape": [64], "dtype": "float32"}, {"name": "batch_normalization_22/moving_variance", "shape": [64], "dtype": "float32"}, {"name": "batch_normalization_23/gamma", "shape": [64], "dtype": "float32"}, {"name": "batch_normalization_23/beta", "shape": [64], "dtype": "float32"}, {"name": "batch_normalization_23/moving_mean", "shape": [64], "dtype": "float32"}, {"name": "batch_normalization_23/moving_variance", "shape": [64], "dtype": "float32"}, {"name": "batch_normalization_24/gamma", "shape": [64], "dtype": "float32"}, {"name": "batch_normalization_24/beta", "shape": [64], "dtype": "float32"}, {"name": "batch_normalization_24/moving_mean", "shape": [64], "dtype": "float32"}, {"name": "batch_normalization_24/moving_variance", "shape": [64], "dtype": "float32"}, {"name": "batch_normalization_25/gamma", "shape": [64], "dtype": "float32"}, {"name": "batch_normalization_25/beta", "shape": [64], "dtype": "float32"}, {"name": "batch_normalization_25/moving_mean", "shape": [64], "dtype": "float32"}, {"name": "batch_normalization_25/moving_variance", "shape": [64], "dtype": "float32"}, {"name": "batch_normalization_26/gamma", "shape": [64], "dtype": "float32"}, {"name": "batch_normalization_26/beta", "shape": [64], "dtype": "float32"}, {"name": "batch_normalization_26/moving_mean", "shape": [64], "dtype": "float32"}, {"name": "batch_normalization_26/moving_variance", "shape": [64], "dtype": "float32"}, {"name": "batch_normalization_27/gamma", "shape": [64], "dtype": "float32"}, {"name": "batch_normalization_27/beta", "shape": [64], "dtype": "float32"}, {"name": "batch_normalization_27/moving_mean", "shape": [64], "dtype": "float32"}, {"name": "batch_normalization_27/moving_variance", "shape": [64], "dtype": "float32"}, {"name": "batch_normalization_28/gamma", "shape": [64], "dtype": "float32"}, {"name": "batch_normalization_28/beta", "shape": [64], "dtype": "float32"}, {"name": "batch_normalization_28/moving_mean", "shape": [64], "dtype": "float32"}, {"name": "batch_normalization_28/moving_variance", "shape": [64], "dtype": "float32"}, {"name": "batch_normalization_29/gamma", "shape": [64], "dtype": "float32"}, {"name": "batch_normalization_29/beta", "shape": [64], "dtype": "float32"}, {"name": "batch_normalization_29/moving_mean", "shape": [64], "dtype": "float32"}, {"name": "batch_normalization_29/moving_variance", "shape": [64], "dtype": "float32"}, {"name": "batch_normalization_30/gamma", "shape": [64], "dtype": "float32"}, {"name": "batch_normalization_30/beta", "shape": [64], "dtype": "float32"}, {"name": "batch_normalization_30/moving_mean", "shape": [64], "dtype": "float32"}, {"name": "batch_normalization_30/moving_variance", "shape": [64], "dtype": "float32"}, {"name": "batch_normalization_31/gamma", "shape": [64], "dtype": "float32"}, {"name": "batch_normalization_31/beta", "shape": [64], "dtype": "float32"}, {"name": "batch_normalization_31/moving_mean", "shape": [64], "dtype": "float32"}, {"name": "batch_normalization_31/moving_variance", "shape": [64], "dtype": "float32"}, {"name": "batch_normalization_32/gamma", "shape": [64], "dtype": "float32"}, {"name": "batch_normalization_32/beta", "shape": [64], "dtype": "float32"}, {"name": "batch_normalization_32/moving_mean", "shape": [64], "dtype": "float32"}, {"name": "batch_normalization_32/moving_variance", "shape": [64], "dtype": "float32"}, {"name": "batch_normalization_33/gamma", "shape": [64], "dtype": "float32"}, {"name": "batch_normalization_33/beta", "shape": [64], "dtype": "float32"}, {"name": "batch_normalization_33/moving_mean", "shape": [64], "dtype": "float32"}, {"name": "batch_normalization_33/moving_variance", "shape": [64], "dtype": "float32"}, {"name": "batch_normalization_34/gamma", "shape": [64], "dtype": "float32"}, {"name": "batch_normalization_34/beta", "shape": [64], "dtype": "float32"}, {"name": "batch_normalization_34/moving_mean", "shape": [64], "dtype": "float32"}, {"name": "batch_normalization_34/moving_variance", "shape": [64], "dtype": "float32"}, {"name": "batch_normalization_35/gamma", "shape": [64], "dtype": "float32"}, {"name": "batch_normalization_35/beta", "shape": [64], "dtype": "float32"}, {"name": "batch_normalization_35/moving_mean", "shape": [64], "dtype": "float32"}, {"name": "batch_normalization_35/moving_variance", "shape": [64], "dtype": "float32"}, {"name": "batch_normalization_36/gamma", "shape": [64], "dtype": "float32"}, {"name": "batch_normalization_36/beta", "shape": [64], "dtype": "float32"}, {"name": "batch_normalization_36/moving_mean", "shape": [64], "dtype": "float32"}, {"name": "batch_normalization_36/moving_variance", "shape": [64], "dtype": "float32"}, {"name": "batch_normalization_37/gamma", "shape": [64], "dtype": "float32"}, {"name": "batch_normalization_37/beta", "shape": [64], "dtype": "float32"}, {"name": "batch_normalization_37/moving_mean", "shape": [64], "dtype": "float32"}, {"name": "batch_normalization_37/moving_variance", "shape": [64], "dtype": "float32"}, {"name": "batch_normalization_38/gamma", "shape": [64], "dtype": "float32"}, {"name": "batch_normalization_38/beta", "shape": [64], "dtype": "float32"}, {"name": "batch_normalization_38/moving_mean", "shape": [64], "dtype": "float32"}, {"name": "batch_normalization_38/moving_variance", "shape": [64], "dtype": "float32"}, {"name": "batch_normalization_39/gamma", "shape": [64], "dtype": "float32"}, {"name": "batch_normalization_39/beta", "shape": [64], "dtype": "float32"}, {"name": "batch_normalization_39/moving_mean", "shape": [64], "dtype": "float32"}, {"name": "batch_normalization_39/moving_variance", "shape": [64], "dtype": "float32"}, {"name": "batch_normalization_7/gamma", "shape": [64], "dtype": "float32"}, {"name": "batch_normalization_7/beta", "shape": [64], "dtype": "float32"}, {"name": "batch_normalization_7/moving_mean", "shape": [64], "dtype": "float32"}, {"name": "batch_normalization_7/moving_variance", "shape": [64], "dtype": "float32"}, {"name": "batch_normalization_8/gamma", "shape": [64], "dtype": "float32"}, {"name": "batch_normalization_8/beta", "shape": [64], "dtype": "float32"}, {"name": "batch_normalization_8/moving_mean", "shape": [64], "dtype": "float32"}, {"name": "batch_normalization_8/moving_variance", "shape": [64], "dtype": "float32"}, {"name": "batch_normalization_9/gamma", "shape": [64], "dtype": "float32"}, {"name": "batch_normalization_9/beta", "shape": [64], "dtype": "float32"}, {"name": "batch_normalization_9/moving_mean", "shape": [64], "dtype": "float32"}, {"name": "batch_normalization_9/moving_variance", "shape": [64], "dtype": "float32"}, {"name": "conv2d_10/kernel", "shape": [3, 3, 64, 64], "dtype": "float32"}, {"name": "conv2d_10/bias", "shape": [64], "dtype": "float32"}, {"name": "conv2d_11/kernel", "shape": [3, 3, 64, 64], "dtype": "float32"}, {"name": "conv2d_11/bias", "shape": [64], "dtype": "float32"}, {"name": "conv2d_12/kernel", "shape": [3, 3, 64, 64], "dtype": "float32"}, {"name": "conv2d_12/bias", "shape": [64], "dtype": "float32"}, {"name": "conv2d_13/kernel", "shape": [3, 3, 64, 64], "dtype": "float32"}, {"name": "conv2d_13/bias", "shape": [64], "dtype": "float32"}, {"name": "conv2d_14/kernel", "shape": [3, 3, 64, 64], "dtype": "float32"}, {"name": "conv2d_14/bias", "shape": [64], "dtype": "float32"}, {"name": "conv2d_15/kernel", "shape": [3, 3, 64, 64], "dtype": "float32"}, {"name": "conv2d_15/bias", "shape": [64], "dtype": "float32"}, {"name": "conv2d_16/kernel", "shape": [3, 3, 64, 64], "dtype": "float32"}, {"name": "conv2d_16/bias", "shape": [64], "dtype": "float32"}, {"name": "conv2d_17/kernel", "shape": [3, 3, 64, 64], "dtype": "float32"}, {"name": "conv2d_17/bias", "shape": [64], "dtype": "float32"}, {"name": "conv2d_18/kernel", "shape": [3, 3, 64, 64], "dtype": "float32"}, {"name": "conv2d_18/bias", "shape": [64], "dtype": "float32"}, {"name": "conv2d_19/kernel", "shape": [3, 3, 64, 64], "dtype": "float32"}, {"name": "conv2d_19/bias", "shape": [64], "dtype": "float32"}, {"name": "conv2d_20/kernel", "shape": [3, 3, 64, 64], "dtype": "float32"}, {"name": "conv2d_20/bias", "shape": [64], "dtype": "float32"}, {"name": "conv2d_21/kernel", "shape": [3, 3, 64, 64], "dtype": "float32"}, {"name": "conv2d_21/bias", "shape": [64], "dtype": "float32"}, {"name": "conv2d_22/kernel", "shape": [3, 3, 64, 64], "dtype": "float32"}, {"name": "conv2d_22/bias", "shape": [64], "dtype": "float32"}, {"name": "conv2d_23/kernel", "shape": [3, 3, 64, 64], "dtype": "float32"}, {"name": "conv2d_23/bias", "shape": [64], "dtype": "float32"}, {"name": "conv2d_24/kernel", "shape": [3, 3, 64, 64], "dtype": "float32"}, {"name": "conv2d_24/bias", "shape": [64], "dtype": "float32"}, {"name": "conv2d_25/kernel", "shape": [3, 3, 64, 64], "dtype": "float32"}, {"name": "conv2d_25/bias", "shape": [64], "dtype": "float32"}, {"name": "conv2d_26/kernel", "shape": [3, 3, 64, 64], "dtype": "float32"}, {"name": "conv2d_26/bias", "shape": [64], "dtype": "float32"}, {"name": "conv2d_27/kernel", "shape": [3, 3, 64, 64], "dtype": "float32"}, {"name": "conv2d_27/bias", "shape": [64], "dtype": "float32"}, {"name": "conv2d_28/kernel", "shape": [3, 3, 64, 64], "dtype": "float32"}, {"name": "conv2d_28/bias", "shape": [64], "dtype": "float32"}, {"name": "conv2d_29/kernel", "shape": [3, 3, 64, 64], "dtype": "float32"}, {"name": "conv2d_29/bias", "shape": [64], "dtype": "float32"}, {"name": "conv2d_30/kernel", "shape": [3, 3, 64, 64], "dtype": "float32"}, {"name": "conv2d_30/bias", "shape": [64], "dtype": "float32"}, {"name": "conv2d_31/kernel", "shape": [3, 3, 64, 64], "dtype": "float32"}, {"name": "conv2d_31/bias", "shape": [64], "dtype": "float32"}, {"name": "conv2d_32/kernel", "shape": [3, 3, 64, 64], "dtype": "float32"}, {"name": "conv2d_32/bias", "shape": [64], "dtype": "float32"}, {"name": "conv2d_33/kernel", "shape": [3, 3, 64, 64], "dtype": "float32"}, {"name": "conv2d_33/bias", "shape": [64], "dtype": "float32"}, {"name": "conv2d_34/kernel", "shape": [3, 3, 64, 64], "dtype": "float32"}, {"name": "conv2d_34/bias", "shape": [64], "dtype": "float32"}, {"name": "conv2d_35/kernel", "shape": [3, 3, 64, 64], "dtype": "float32"}, {"name": "conv2d_35/bias", "shape": [64], "dtype": "float32"}, {"name": "conv2d_36/kernel", "shape": [3, 3, 64, 64], "dtype": "float32"}, {"name": "conv2d_36/bias", "shape": [64], "dtype": "float32"}, {"name": "conv2d_37/kernel", "shape": [3, 3, 64, 64], "dtype": "float32"}, {"name": "conv2d_37/bias", "shape": [64], "dtype": "float32"}, {"name": "conv2d_38/kernel", "shape": [3, 3, 64, 64], "dtype": "float32"}, {"name": "conv2d_38/bias", "shape": [64], "dtype": "float32"}, {"name": "conv2d_39/kernel", "shape": [3, 3, 64, 64], "dtype": "float32"}, {"name": "conv2d_39/bias", "shape": [64], "dtype": "float32"}, {"name": "conv2d_40/kernel", "shape": [3, 3, 64, 64], "dtype": "float32"}, {"name": "conv2d_40/bias", "shape": [64], "dtype": "float32"}, {"name": "conv2d_41/kernel", "shape": [3, 3, 64, 64], "dtype": "float32"}, {"name": "conv2d_41/bias", "shape": [64], "dtype": "float32"}, {"name": "conv2d_42/kernel", "shape": [3, 3, 64, 256], "dtype": "float32"}, {"name": "conv2d_42/bias", "shape": [256], "dtype": "float32"}, {"name": "conv2d_43/kernel", "shape": [3, 3, 256, 256], "dtype": "float32"}, {"name": "conv2d_43/bias", "shape": [256], "dtype": "float32"}, {"name": "conv2d_44/kernel", "shape": [9, 9, 256, 3], "dtype": "float32"}, {"name": "conv2d_44/bias", "shape": [3], "dtype": "float32"}, {"name": "conv2d_8/kernel", "shape": [9, 9, 3, 64], "dtype": "float32"}, {"name": "conv2d_8/bias", "shape": [64], "dtype": "float32"}, {"name": "conv2d_9/kernel", "shape": [3, 3, 64, 64], "dtype": "float32"}, {"name": "conv2d_9/bias", "shape": [64], "dtype": "float32"}]}]}